cmake-build-debug/model.npz (npz, 128270 bytes, 4 tensors)

w_i_h f8 [20, 784]
00000000: 889a 66b6 2ba2 b83f 387a 958e 981c d5bf
00000010: 08fa e247 6e1c b93f ae21 91ec 392d dfbf
00000020: f07b bc50 0358 b23f 6831 a118 cbe1 c2bf
00000030: fe9b e7aa da4c d2bf 4c85 3be7 e07b d5bf
00000040: 3283 ebca 5ada d63f 88f2 9af8 09ab b03f
00000050: dce7 ed23 e417 cf3f 2879 9d2c e561 cf3f
00000060: 77fc 0b76 b22b d93f 88a9 87c8 5c4d c33f
00000070: b269 acdc 768c de3f e17c e895 c3e0 d3bf
00000080: 4068 9b8e 462e adbf b0ca 8e1d f87d c2bf
00000090: e01b 9b1a 90a7 c3bf 8c8e 8414 c0c7 d9bf
000000a0: 0c4c 64a5 fc30 d3bf 38f7 2db2 fe04 b53f
000000b0: a052 913c 1baf bf3f 982b e4f4 44c8 dcbf
000000c0: cc31 59d0 47e3 da3f d027 1041 63e7 a2bf
000000d0: d69c d150 8667 d63f 4cbc 8227 c1b8 dcbf
000000e0: 1828 c99f 0756 b93f 0ccd a308 8b41 d6bf
000000f0: 4074 e7d2 c130 a0bf ec9b f5d9 e6c8 da3f
00000100: 0604 735a 6e5e c7bf 80c0 0146 3c04 d13f
00000110: f8d3 5856 c20c a2bf c3ee 1279 3a9e bebf
00000120: 3497 4048 a65c dd3f aad6 171d 9629 c73f
00000130: 6f84 2796 7ba1 dd3f 87d7 665f 7583 dbbf
00000140: 106a d1c3 4937 dbbf 792f f861 c196 d63f
00000150: e87a 9a1b a4de df3f 7d70 bf5e d64a a33f
00000160: 4a27 2640 ee51 7bbf 0128 64a1 46a4 a3bf
00000170: 6a3c 28af 373c d93f b80a d11e e6ab d03f
00000180: bc67 4133 9b2d d9bf f8a7 cd7e 7fe1 de3f
00000190: be61 00ce 0652 dbbf a2b4 7cda e854 c6bf
000001a0: a4ff 6940 e25c d9bf 40be 533f 2622 c5bf
000001b0: 7e26 e82d cf00 d1bf c86d e9b3 e53c ddbf
000001c0: a632 a8c3 86e3 debf fe1f 9128 2d4d dd3f
000001d0: b8e2 4cb2 3f2e cabf c2f0 d6e6 f26c d03f
000001e0: 15aa 6d32 56d6 db3f 65ff 3e88 ae3c 753f
000001f0: 3eda 9796 700c dd3f 4608 44e6 93a9 b8bf
00000200: fb35 570d 23bd cfbf 4486 e8c6 999b ddbf
00000210: 3ed0 418f 7508 cfbf ed5a 3d1a 9b41 ae3f
00000220: 3a20 d411 bffd a13f 3b39 4f2b aa5c bbbf
00000230: e2ef 89ca 5fe5 c0bf c643 e689 8e15 a23f
00000240: 7517 4509 9f1f e1bf d3a8 8197 dd2c cfbf
00000250: 8d80 cf45 f642 bfbf f379 14e8 4f5e c9bf
00000260: 31ef 30ef 43b7 d7bf 5614 4078 4104 d13f
00000270: 5d50 928a 3f3e d83f 4593 9699 3005 d73f
00000280: 5330 df56 2232 d53f e583 5676 9843 d7bf
00000290: 9c97 f9b7 6f76 d93f 50cd 9fc0 17ed cc3f
000002a0: 4027 4126 fd63 84bf f4ed 2af3 3b91 dcbf
000002b0: 08c5 4bd1 772c bcbf 31fa 64f3 d9eb dc3f
000002c0: d73e 451f 884c d03f 4fc4 c104 8878 9d3f
000002d0: 457a 96f1 5010 db3f 49ce 38e8 cbc3 983f
000002e0: 0c86 e8eb 0c36 bfbf d95c b81c 8dc1 d83f
000002f0: 31b7 b881 b14b c2bf a83a ea8d 2f00 df3f
00000300: d26c 24e1 b138 a23f 6874 d536 d6b4 d33f
00000310: a06e 1b43 a4e8 cbbf 2ccf a187 0f7e c73f
00000320: 3081 2ba1 a936 d13f 91d8 416b f7e2 d1bf
00000330: 79bb 43d8 b8ec b2bf 5384 677d 4ce7 e3bf
00000340: e472 37cd f1dc b63f 63bd 1678 8a5f d03f
00000350: 287f 16c8 c4b6 d63f 7c73 8097 f19b 7a3f
00000360: d3b6 9d96 c51b a2bf e104 7ed6 b49d debf
00000370: 97e2 bde9 2fa5 cebf 9a60 aedd e6a5 d6bf
00000380: a2c7 f33e 2e56 d33f 5c0d dd5d 5b1b cb3f
00000390: 175a 771a 79c1 a93f e039 9aca 3d43 ad3f
000003a0: a486 446c 83ec ca3f 252a b767 a189 cf3f
000003b0: c3bf 1648 652c d5bf db49 9862 e420 c7bf
000003c0: 495b 1412 ce1e d33f b218 d66f e97b be3f
000003d0: d11d 2787 c92e c0bf fa82 2a07 d7ee d03f
000003e0: 7d52 2020 f8b6 d33f 3a1a c49d b62a d6bf
000003f0: fa87 7e40 fe2d c3bf 2704 8134 5734 d13f
00000400: 8d2b c3c2 6b03 a3bf ed1d 64d9 9d90 d8bf
00000410: 57fc 18dd 097f cebf 858b 3fa4 8ece cabf
00000420: 5afd 7d33 0f0b d7bf be5b 1b02 1dd1 d53f
00000430: 667b 3bb0 e1ed d93f 6e7d 50fe 1b07 babf
00000440: bd6f d213 0e3a d23f 283f d87b 2e30 cdbf
00000450: 4b6b f718 7294 de3f 885a a9a7 b71d d5bf
00000460: 0e02 b565 37ac d9bf d4cc 90c9 353b c1bf
00000470: 2a3f 8ca8 3452 d7bf c01b bde5 c39b d33f
00000480: b12b 2c5f 4e56 a7bf b1f7 56d3 0245 dcbf
00000490: 012c 765c bd50 debf 5904 53b3 5e72 dc3f
000004a0: 4df4 eea5 3a8d babf 5dff 6204 fc6c dc3f
000004b0: 169c 29b1 0f94 b63f 3445 d003 bac9 db3f
000004c0: 9ba5 3cd6 b203 853f 1249 0dd0 764d d53f
000004d0: 07bc 46c3 e65e d13f a499 0aaa f778 b03f
000004e0: fb37 3924 9870 df3f 7f88 8cad 2e0a a33f
000004f0: b1a9 162a 89d1 dcbf 719d f639 ce8a 633f
00000500: 7778 b8a3 0300 c23f c306 0acb a57d b5bf
00000510: 369d ef98 c2f1 cd3f d751 203f 4ea7 c8bf
00000520: 8572 4ae0 452a debf 2dcf 90be 8c83 d73f
00000530: 6387 64ba a441 733f 0823 0761 4557 ccbf
00000540: ccd4 39c1 34e8 d6bf 2366 9961 9f3d c9bf
00000550: 87b3 7186 7771 bdbf c19e 243f 7407 d63f
00000560: 7519 13c7 42f6 d0bf aa78 0435 3d2f a8bf
00000570: c4f2 2f7d ef39 ddbf 2de7 675e 3a10 d6bf
00000580: 1194 3328 eed3 803f 81d2 5be0 87ae dabf
00000590: d7b9 3716 b493 da3f 8b6e 4c58 c13a cbbf
000005a0: 4d32 4ff9 9f07 b8bf 0ac9 61e1 40cb c9bf
000005b0: bb1a 4caf c92a d73f eb5b 379d 5eb5 d73f
000005c0: ca4c bd49 2bcb d3bf 82c6 5251 6f9b af3f
000005d0: 37ae 4cc4 7d52 a8bf 7897 5bd8 664c d33f
000005e0: a114 6ad8 a290 c9bf 2a2a b8e1 469b b13f
000005f0: a014 0414 c749 9fbf 1374 8da1 5c75 dbbf
00000600: f128 b9ba 7ff4 dabf c187 3ad4 cc27 c03f
00000610: d4e1 415e 9f0d e0bf 2246 e5eb e065 c23f
00000620: d554 031c c8ad d33f 65d5 63e4 683c d7bf
00000630: 7714 e8ca 0ced c23f 2e1f 5981 21fe a6bf
00000640: d4ca bdc5 950c dcbf 16e5 cf3b 1227 cb3f
00000650: bb6c c801 d69e d9bf 19bc 73b9 350c d13f
00000660: 1696 a982 276b b7bf f1cc 841e 9722 a03f
00000670: c53c 5e4e b6f2 d93f f053 65dd 3c95 b7bf
00000680: a073 a11a 7aca b33f 41b5 e0f4 c404 c43f
00000690: a7aa 54c0 f8c7 d2bf c674 929b faab d8bf
000006a0: 9b73 0188 c31d c8bf 55d2 afd2 c1c3 c03f
000006b0: 6794 2bff 636e bb3f 2d24 8160 d2fd cc3f
000006c0: 6fed 1913 3189 8b3f 6bed 866d a820 c13f
000006d0: b3de baa4 4170 c13f ac30 091a 99be d03f
000006e0: faa4 5cec 4e9c d4bf 8de7 e0cf 18bc c8bf
000006f0: 6c1d 12cb 4753 d9bf 361f 3aca cc53 d5bf
00000700: cf72 262c e077 d0bf 5895 3460 f84e c5bf
00000710: 0c8c db5e a50c d93f 65e3 fe3f 9efb c53f
00000720: 7982 8421 24b2 8bbf cb69 4a32 244e d43f
00000730: 1606 9d57 f31d ddbf 8182 f480 323c d0bf
00000740: c36c 9cae 1e23 d23f f20e b870 96d5 bdbf
00000750: 4e21 5236 6107 c3bf 21bc 980e ef0d da3f
00000760: fac5 2b32 3704 c23f 77a7 d975 f3e5 a73f
00000770: 738e 13cb 9abc c3bf 48eb bf45 5cc5 babf
00000780: 1a18 df2e 54be 973f bca3 52c6 ffb2 d9bf
00000790: cca9 e596 887c 81bf 55ca 3740 b6d3 6f3f
000007a0: c02f 4807 60b8 c9bf 5db5 1163 059f adbf
000007b0: d40b c091 6a21 ca3f 652c 2ae9 010f dabf
000007c0: bd19 e567 acdc e2bf 0876 8baa 1cc5 c2bf
000007d0: 46aa ed24 5a3b d33f d961 81a8 ef66 c4bf
000007e0: 0827 4230 815b d63f 3019 78b0 c5c7 a8bf
000007f0: 3e33 e7b0 35f7 bd3f 295b a830 3769 debf
0.09622452929634495 -0.3298703567906247 0.09809006934208508 -0.48713539221037194 0.07165547104931114 -0.14751566603298305 -0.2859408062926717 -0.3356859453325185
0.35707731071856863 0.06510984725441393 0.24291660074578558 0.24517502478097097 0.3932920601654994 0.1507984141492893 0.4773232607855348 -0.31059350623577414
-0.05699367991265136 -0.1444692749333476 -0.1535511140739052 -0.4028167915696279 -0.299864923015037 0.08210746622168308 0.12376566151335533 -0.4497234717861658
0.4201221022274495 -0.03692159814097773 0.3500686444517219 -0.4487765203329601 0.09896896029491165 -0.34775043338523015 -0.03162198733819155 0.41851207051371264
-0.1825693074843288 0.2658835109386999 -0.03525359443703019 -0.11960187393099901 0.4587798791493356 0.18095661564409699 0.46298112548362885 -0.42989858929228614
-0.4252495205197713 0.3529513794644497 0.4979639310421775 0.03768033892240028 -0.006669932047211289 -0.03836270065410475 0.39430038552467883 0.2604918766921105
-0.3934085846464048 0.48251330741061293 -0.426881505177814 -0.17446623485867457 -0.3962941769641424 -0.16510465709824196 -0.26567439539994797 -0.45684187478556426
-0.48263711077815186 0.4578354736481741 -0.20453640180655497 0.2566497091572836 0.43495707440038817 0.005184823767137779 0.4538842650066818 -0.09633755084726756
-0.24795950080299164 -0.4626221125091414 -0.2424456548211555 0.059094283059200815 0.035139056135506455 -0.1068827014671329 -0.13199994458761838 0.035320715268546674
-0.5351100140621684 -0.2435566892411943 -0.12211550907477627 -0.19819067794828946 -0.37056063040266723 0.2658847498244702 0.37879932911278563 0.35969176291319044
0.3311849449498869 -0.36350070530357775 0.39785378423982265 0.22598549752692998 -0.009956338624892092 -0.44636439081997925 -0.1100535284019949 0.451895225229154
0.25467112592467117 0.028780103006685483 0.422870860982503 0.024184404419612702 -0.12191849479179256 0.38681342892364295 -0.14293497880992725 0.4843863378418214
0.03558879731482424 0.3079124007688905 -0.21803715969769133 0.1835345661416964 0.26896134127857163 -0.2794779345925998 -0.07392459182640988 -0.6219847153953516
0.0893088460938532 0.25583135344910185 0.35490531482536136 0.006496375768645698 -0.035368132243872495 -0.4783756346369739 -0.23941611207171284 -0.35387584351111345
0.3021350493210041 0.21177236636331542 0.050304207306613495 0.05715363596128831 0.21034281527049814 0.24638764919502978 -0.33083469428947526 -0.1806912881298349
0.2987551857526581 0.11907824497584121 -0.12642783259637594 0.26457763385592126 0.3080425561650271 -0.34635701567495725 -0.14984110020765212 0.268819619439514
-0.03713547470541476 -0.3838266966781408 -0.23825190826207418 -0.209428625296905 -0.3600500109532355 0.34088826375721826 0.40514414034071533 -0.10167098006103512
0.2847933953832998 -0.22803288504700814 0.47781040609486486 -0.3299388062782005 -0.401136254618934 -0.1346194490630298 -0.36439243755102046 0.30638215480251674
-0.04558033859037581 -0.44171209944385753 -0.4736779597230339 0.44448058616769043 -0.10371748496159335 0.44415188244237475 0.08819673609978937 0.43418741581361364
0.010260960734359162 0.3328530341870116 0.27141732282592596 0.06434581662560973 0.49124721085979645 0.037187060055900105 -0.45028905019958204 0.002385523591971577
0.1406254338662085 -0.08394848067294007 0.23394043414666904 -0.19260576326691023 -0.4713301363315526 0.3674041615479265 0.00470127436554599 -0.2214132999199807
-0.357922733971759 -0.19719307199083955 -0.11501261741950773 0.34420496145547125 -0.2650305694663964 -0.04723540565667979 -0.456661102536412 -0.3447404786999069
0.008216724969722507 -0.41690251264598294 0.4152651040048147 -0.21273056804135523 -0.09386634670881584 -0.20151530270556633 0.3619865619552162 0.37044492104672483
-0.30927545739286855 0.061732748677411756 -0.047504358494134306 0.30153819206895305 -0.19972644393070474 0.06877558718421342 -0.030554876896549232 -0.4290381982480664
-0.42117303118415267 0.12621460306860224 -0.501662906738654 0.1437340881189338 0.3074817918362219 -0.363062117611966 0.1478591910128306 -0.04490761474568071
-0.4382681304042937 0.21212985916626143 -0.4003195779238912 0.2663702307754093 -0.09147879543305523 0.031513903117593396 0.4054389729798909 -0.09212093739672844
0.07730830335772376 0.15639554936334757 -0.29345530302331685 -0.3854967612513288 -0.1884083189096629 0.13097403323594628 0.1071531770681574 0.22649602615482092
0.013445266147064953 0.13380914066315638 0.13623829406218632 0.26163318197792296 -0.32204030115333604 -0.19324026251143459 -0.3957080348122506 -0.3332397436974931
-0.25731663047353676 -0.16647247979669078 0.3913968492835813 0.17174127697742417 -0.013523371003033123 0.3172693720931902 -0.45495303684228483 -0.25367415040276603
0.2833935456453213 -0.11654033901146102 -0.14866271164306472 0.40710045266581757 0.1407536501861129 0.046676262031566766 -0.1541932574829051 -0.10457398131249562
0.02318698440628717 -0.40155023925268174 -0.008538310151114191 0.003885131796544964 -0.2009391818577324 -0.05785385927525042 0.20414478413303405 -0.407165982913915
-0.5894376782605871 -0.14664038016682945 0.30049756628310254 -0.1593913624553938 0.34933500015959895 -0.04839914111294019 0.1170533711330792 -0.47517184974406007

b_i_h f8 [20, 1]
00000000: 62a3 4f1d 512d d5bf 6fdb 3682 16b5 bf3f
00000010: 0e21 818a b9f0 e0bf 6565 60f9 674d cb3f
00000020: c14f 5a4b 8de6 973f aab7 875c 453a c13f
00000030: 29d9 8e15 0f78 d2bf 6d1f ef4e f953 e93f
00000040: 60f0 1672 7f31 d6bf 8a51 fc93 8121 cabf
00000050: 62e2 bdaa fd9a d4bf 8366 ad2c 787d a73f
00000060: 71cc 0598 a795 b1bf c42a fda4 8d5b d63f
00000070: 4677 3fed 26a6 e43f 0dc4 e867 5232 d2bf
00000080: 4a2a c970 e01e c73f 6452 864a f3b3 c83f
00000090: fb64 29cc 5612 993f a8b8 72f1 5b9f e1bf
-0.330890921234234 0.12385693244037353 -0.5293853478588362 0.2132997481974527 0.023340423320931118 0.13459078805993602 -0.2885778151061396 0.7915007154160613
-0.3467711080700209 -0.20414752698765098 -0.32195989297864547 0.04587913079622032 -0.06868979894152162 0.34933796989632193 0.6452822335956874 -0.28432140490900865
0.1806297827445909 0.1929916490450011 0.024484020434418757 -0.5507030216010849

w_h_o f8 [10, 20]
00000000: d922 40d4 1924 e83f 6304 582d d2d3 e5bf
00000010: 7ad7 5d76 1247 fc3f a975 6c72 7caf dcbf
00000020: 8fa7 fba1 b8b7 c3bf f534 c91e 3b7e f23f
00000030: 4e5c 7e6c e44f f33f ea53 1a6d 9660 ed3f
00000040: db9d d936 14e7 dcbf 00a0 8eea 9853 e73f
00000050: 7fc9 355c 7da3 d73f 2787 d23e 8d53 b7bf
00000060: 83c1 fb99 b268 c9bf ef53 4d86 fd85 ddbf
00000070: 6196 17b8 351f f93f b087 e47a 32ae efbf
00000080: 4b3a 7670 ca7c ed3f d2c1 6f24 6ac3 f73f
00000090: 1d73 db59 3a06 c3bf 14d4 0bb5 4353 d6bf
000000a0: 8cb7 7141 730a b7bf e3cb 4e12 8b44 c23f
000000b0: 01d5 9090 a013 d1bf c1ef e37d 912e fa3f
000000c0: 3f12 947e 834b d2bf b6c5 f564 0d9b d9bf
000000d0: 2926 d214 57f9 eb3f 745f 0e04 313b efbf
000000e0: c7d2 15b8 f9ec a9bf b32f c18d 9be3 8a3f
000000f0: f4df fef0 06c1 ec3f 2385 224b c79e e13f
00000100: fc9f 1e21 7f35 b93f 5d90 f3d5 7c97 fc3f
00000110: 34d2 fdfd 87f8 e63f 0016 b4fc a844 f03f
00000120: 6ef0 52a3 542f fb3f fde8 5817 76a2 e1bf
00000130: 1514 7644 bb0c e0bf 7b0f ebcd ee29 f2bf
00000140: 7df4 0898 d19d f13f 1ba1 0f34 edf7 e7bf
00000150: 29ad 7fa2 3404 eb3f 9fec f89a 65f9 fb3f
00000160: 759e c657 1e2b e4bf cf02 4010 6fbf e5bf
00000170: b472 984d a077 debf 09cf c76e 9555 d5bf
00000180: 44be b86f d4a0 f83f 534c bb7d befd e3bf
00000190: 12d8 3147 c865 ed3f f134 9924 1329 e73f
000001a0: 5155 dc63 a5df b7bf 02b1 ea3f b2c9 c3bf
000001b0: d7f7 3bf3 e04b e73f 9229 487f 98bf e43f
000001c0: a04d 03e9 0cb1 623f d4d4 e841 dff9 f03f
000001d0: 8b95 2b66 bae4 dcbf 4ce0 4d02 2cf7 f83f
000001e0: bfeb de8f f1eb f0bf 2099 b845 9396 e8bf
000001f0: 1294 249c cad1 d5bf 087f 3a6d 6523 b83f
00000200: 906a eedc ab74 d7bf d6b2 d724 953e ea3f
00000210: cb2f c1ec 482a f53f 2afe 9d49 5c6a f23f
00000220: dc93 81d4 0e12 4c3f 1791 d500 5537 f73f
00000230: a85e 4935 bfa5 f03f 2560 f861 2db0 e23f
00000240: 1e4f d590 7f45 c43f 506d 514b 59b9 e03f
00000250: 3dfa bff4 4f20 e7bf c35e 9a86 94bb fb3f
00000260: 2efc 7e4d 8cf4 e43f 440e 859b bbae a03f
00000270: 002e 17fa a12c be3f f4eb 9113 f446 0140
00000280: 6430 2c49 395c f03f f0d2 4f94 7d0a fb3f
00000290: e3ea 457c 5893 ce3f 4024 a67e 8470 b73f
000002a0: 9057 5721 27c1 0040 b50d fa77 9d0a dabf
000002b0: a61e 8fd3 cb4a c5bf 588a 78b0 663b f63f
000002c0: bed0 9470 6000 e2bf 56c9 3647 beeb d3bf
000002d0: e796 050e 1750 ebbf 3dd9 3d50 ccba d3bf
000002e0: 6a97 db51 0710 ec3f 0013 ee72 1aa1 fe3f
000002f0: 911d bc0e 6aa8 e0bf 3683 01b9 b814 bc3f
00000300: 4561 75c3 3efb b5bf b83e 5b0a 7dc8 b83f
00000310: 1396 7e2b 8f26 e2bf 9e01 63b1 debd ec3f
00000320: e684 5f75 dcbc d7bf 856e 69ff a2f7 e43f
00000330: cef6 1512 4b15 bdbf ebac 7400 d705 d8bf
00000340: 2fdc 49c8 9787 c43f 6640 cdd2 99be f83f
00000350: e7d3 6263 d479 ea3f dd30 9c83 521e f83f
00000360: a3ce 0506 7f81 d4bf 72d5 2cc8 8f58 dcbf
00000370: 5dc4 e7f3 bbf6 d8bf c79e edbf 341d ec3f
00000380: 306b 8885 a68c ee3f 058e 7b3f c627 9d3f
00000390: cb79 1d8f c29f ccbf 6e54 91d4 d323 fb3f
000003a0: 494f 5e3d e41c e2bf 6da2 13c0 fe6d ff3f
000003b0: 699c a41d abe9 f03f e83e de9f fe82 e9bf
000003c0: 3606 0601 e1c1 d23f 783e 3b7f 88d0 fb3f
000003d0: ba9f 212f 9e20 dabf 73ed ef23 5121 dabf
000003e0: c285 d6c2 f4ae fa3f 8ae8 96d6 f164 f53f
000003f0: 2874 a83a 6983 c33f 9213 5ee9 a6c0 d9bf
00000400: 8835 6983 ddf8 f73f ce5b 4998 73e2 e4bf
00000410: a0d5 f501 e2e0 e83f 27dc ceac 264f 70bf
00000420: d14d efa0 2784 b93f c37a 2ba8 8983 e6bf
00000430: a8bb 41c3 8209 e23f aa54 53bc 6dd2 eabf
00000440: eac6 c80c 8897 d0bf 22af 2d18 993e f23f
00000450: 3f34 5132 2b6d b4bf 6fcd 97bf f4d0 ef3f
00000460: 3721 9e29 0aaa eb3f ce4b 4b4d 2a31 d5bf
00000470: 02fb 7c2a 5ba8 d5bf e832 13a5 f029 e93f
00000480: 1f66 f1ad 966e e43f 862c 51f5 ea99 cabf
00000490: 760f 4a88 20ac e6bf 5f24 c7d7 f24e f73f
000004a0: 8654 7046 4dcf ce3f c89b 73fb 5428 fd3f
000004b0: de1e d41d 8151 e93f d0a2 e01a 54dd d93f
000004c0: c637 e73b 1663 e03f 6bf7 1924 50a2 e2bf
000004d0: d2c3 3570 3ec3 fa3f 606e 9a67 7552 e0bf
000004e0: 8562 9215 30ef a1bf d1e3 cc1f 4d4f f2bf
000004f0: 2741 4465 47e6 0040 9443 51d9 46f9 d2bf
00000500: c2a6 5b6b 1ebf fc3f 866c 3fd8 fb4e e13f
00000510: 7a66 d3dc 4f23 bb3f 9946 15b3 364d f0bf
00000520: 9514 2037 3e05 c6bf 20a8 d017 6e46 e2bf
00000530: b638 a2e3 7193 fa3f 3091 5722 f1a3 e6bf
00000540: a825 dfe2 f4f6 d8bf 31e9 f52f da65 d4bf
00000550: c48d b381 7455 fc3f 947f 8d0f 460b f73f
00000560: 137d e17a 6343 f13f e558 1062 bad8 e3bf
00000570: 25b8 532d 0800 e8bf 591b 92a4 77f8 fc3f
00000580: c005 cf40 6c0e efbf 6b30 a170 0a63 a23f
00000590: 5564 31ad 8370 cabf 46c8 8077 9483 d3bf
000005a0: 8e96 6735 7e04 e03f ccdd 20f2 4efa f13f
000005b0: d3dd 3727 aa17 e03f 0367 6050 5770 dabf
000005c0: 6e7a 7ca9 0462 e1bf be96 e1af 2aae c13f
000005d0: c952 4f68 0b5d d4bf 847e 0701 10e7 dbbf
000005e0: 0adf 0537 9f85 d63f f5f4 0ded e1c5 f73f
000005f0: e8d0 20d4 7c99 e7bf 3e9d e787 cf15 f33f
00000600: 01f1 ae14 a247 e23f ec33 90e2 9b46 ff3f
00000610: f786 858c 939a e7bf 7667 09ee 353b e0bf
00000620: e6ab 22a7 6168 d2bf 9384 bdf6 946f e1bf
00000630: e960 7ae8 28ce 0040 1a64 462c 0774 d53f
0.7544068475263784 -0.6821070562001633 1.767351591462527 -0.44821082281290586 -0.15404422673537652 1.1558181002213221 1.207004951289281 0.9180404787936116
-0.4516039405484357 0.7289547520822452 0.36935361866849087 -0.09111864837407478 -0.19850761908265832 -0.46130312076030483 1.5701195899104265 -0.9900143051383932
0.9214832493324335 1.4852086470892698 -0.14862756145057512 -0.3488320606259674 -0.090003207662191 0.1427167739289806 -0.2668229495787529 1.6363692205040794
-0.28585898743793686 -0.40008864268665023 0.8741870314272023 -0.9759755210134089 -0.05063610431799286 0.013129439605243797 0.8985628802247434 0.5506321399190351
0.09847254332146343 1.7869842870213895 0.7178382836123718 1.0167627211789068 1.6990553264468207 -0.5510817008974126 -0.5015541398175879 -1.135237507217396
1.1010299624315671 -0.7490144745652602 0.8442633794597089 1.7483879140479883 -0.6302634920475173 -0.679618388880124 -0.4760514028328473 -0.33334861582191927
1.539265095150669 -0.6247246223159756 0.9186746016046092 0.7237640108884574 -0.0932563179779511 -0.15459278222022738 0.7280125380200343 0.6483881460165313
0.0022816898491357512 1.0610039305295702 -0.4514604566341737 1.5603447046287497 -1.0576034183456924 -0.7683807718028994 -0.3409296536286216 0.09429010311805197
-0.3664960534603461 0.8201394767362113 1.322823452780528 1.1509669185323994 0.000856644860516394 1.4510087997996999 1.0404655534274898 0.5840060151558687
0.15837091991363023 0.5226255866104257 -0.7226943760177346 1.7332959421091096 0.654852057799763 0.03258310578760562 0.11786854129530155 2.1596452263743178
1.022515569525262 1.6900611680441067 0.23887163227103433 0.09156063167587636 2.0943129162578273 -0.4068978950164948 -0.16634509878189369 1.3895022290604597
-0.5625459860662188 -0.3112636275719941 -0.8535266183723395 -0.30827625118344654 0.8769566153321027 1.9143318643047564 -0.520558384684522 0.1096911861109334
-0.08586494705139554 0.0968092108043902 -0.5672069406034005 0.8981774773201783 -0.37090217077464016 0.6552290905487587 -0.11360615912959846 -0.3753564362002197
0.16038796691620535 1.546533416218176 0.8273717824109753 1.5074029103298507 -0.3204038199248577 -0.44290537403443075 -0.3900594598663412 0.8785651920888647
0.9546692474426433 0.028472039818451495 -0.22362548816722802 1.696246939032132 -0.5660268019296179 1.9643542769428237 1.057047954361929 -0.7972405550408128
0.29308343028978656 1.738411423681013 -0.4082408390299822 -0.40828350553029863 1.6677138911112341 1.3371446974183834 0.15244784702454806 -0.40238354482453886
1.4982581265679489 -0.6526430105540102 0.7774515188490803 -0.0039817343467154825 0.09967277220794492 -0.7035568508689142 0.5636609853371413 -0.838187091658843
-0.2592487454268012 1.1402827209921687 -0.07979078272292471 0.9942573301363334 0.8645067990155785 -0.33112580822233617 -0.3384006419109228 0.7863696312066084
0.6384995839427495 -0.20782219866154977 -0.7085116063976631 1.456774561769883 0.2407013505877879 1.8223466703727684 0.7911992628659978 0.40413382172350243
0.5120955629333757 -0.5823136048418126 1.6726669676975132 -0.5100657485485947 -0.03502798331573324 -1.144360660762903 2.1124408637480374 -0.2964646455994224
1.7966598695442575 0.540891573294531 0.10600756779913381 -1.0188509936746526 -0.17203500453630186 -0.5710974183214184 1.6609972850742856 -0.7075124426596968
-0.39007303386150705 -0.3187165706982738 1.770863062521003 1.440252362015575 1.0789522933990312 -0.6202060618695923 -0.7500038991254355 1.8106609753173954
-0.9705106035036621 0.035911871193634 -0.20655866581617724 -0.30490600271435075 0.5005484622058292 1.123610444845201 0.5028887525540376 -0.41310675477289766
-0.5432151136663614 0.13812764728498012 -0.31817898928174465 -0.43597793674960195 0.3519056355794282 1.4858111629430912 -0.7374862807396569 1.192824869993117
0.5712442783328983 1.9547385072830776 -0.737619184929115 -0.5072278641848544 -0.2876209385091769 -0.5448708361765447 2.1006639635416957 0.33520678828932804

b_h_o f8 [10, 1]
00000000: 40f4 a720 2fc5 1dc0 aca5 2227 ac20 19c0
00000010: d927 cab3 e234 1cc0 43f2 285d a3cc 1ec0
00000020: 7540 a28c 9223 1bc0 11a2 9e36 e2d5 1bc0
00000030: 9388 e45c 9471 1bc0 dfd7 156f 6852 1bc0
00000040: 4cc2 c211 4aa7 1cc0 8068 9f30 2ae6 17c0
-7.442562589884858 -6.281906711091704 -7.051646050656893 -7.699841933845678 -6.784738728907645 -6.958870747978396 -6.860917521904542 -6.830476508815962
-7.163368489753861 -5.974770316819672
