NeuralNetworkFromScratch/model.npz (npz, 128270 bytes, 4 tensors)

w_i_h f8 [20, 784]
0	0xbfd9f4f65d2038d6	-0.40557631582568143
1	0x3fb2b6f7e5db03f8	0.07310437547404536
2	0xbfc45442ed9a5694	-0.158821455018075
3	0x3fcc4e8c635d2d00	0.2211471066642403
4	0xbfcc6c70a6730214	-0.22205932738690193
5	0x3fd6b86674c1435a	0.35500489618157405
6	0x3fc0c730ee092518	0.1310788309367943
7	0xbfcfd34c7cd6c3f0	-0.24863582702303644
8	0xbfd38077826ba428	-0.3047159932744443
9	0xbfc9e7ebe4a9daa4	-0.20239018120965568
10	0x3fd67d677f6612d6	0.35140407029420595
11	0xbfda2fac8c577f16	-0.40915979104282607
12	0xbfcbf2ad2fe59d9d	-0.21834339941709127
13	0x3fcc57521d4a06d4	0.22141481809744923
14	0xbfabb516afa62168	-0.0541159715094775
15	0xbfd39b86282d1a89	-0.3063674347253387
16	0xbfce2dd470e59150	-0.23577361595665502
17	0x3f75a99709f8cd80	0.005288686748417759
18	0xbfac7e6ca0ea2250	-0.055652041094678695
19	0x3fda363c0f73a346	0.40956021794277253
20	0x3fb59da200531800	0.08443653591083944
21	0x3fd797a4fb56d388	0.3686306433185611
22	0xbfd6e17e04d9415a	-0.3575129554128772
23	0xbfd09e752f57ca0a	-0.2596714937527912
24	0x3fb3672988d418f8	0.07579288092174241
25	0x3fad46532c131590	0.05717716134089834
26	0xbfd91bc339b02898	-0.3923194945679227
27	0xbfb03ecfe4ddfc80	-0.06345843637062565
28	0xbfd5f8c1a204eeca	-0.343307884427969
29	0x3f8cfa319a143fc0	0.014149081720944312
30	0x3fd9fa8419e37586	0.40591528442549707
31	0x3fd4de31bc57c482	0.3260616626058167
32	0x3fac63660697893d	0.05544585066287986
33	0xbfd12c90bc55791e	-0.26834505454998403
34	0xbfd3b2fb18a92f61	-0.307799123843088
35	0x3fbdbffd4ca3d827	0.11621077653021016
36	0x3fda7a8f37fcda47	0.4137304350619257
37	0x3fd3614aa24b8819	0.3028132042801431
38	0xbfd93b247c5ba7d6	-0.39423477310503807
39	0x3fcff9be45f29566	0.24980905929002545
40	0xbfd38e0eb078c6de	-0.3055454943997641
41	0xbfcc9c063309447e	-0.22351148120882053
42	0xbfd359450acd4cdc	-0.30232358984831165
43	0xbfdbda822a4f9853	-0.4352116978828963
44	0x3fd3aa3474e3fd29	0.30726348319145075
45	0xbfbb8e603ed4dad8	-0.10764123472186371
46	0x3fd4f33780a5a830	0.32734477580254673
47	0xbfd4f2805ba6ad66	-0.3273011107473479
48	0xbfc00fd96673c93d	-0.1254836797957725
49	0x3fc5965771978a80	0.16865056082231789
50	0x3f64bfdbab75a8fd	0.002532891314037332
51	0xbfd5af2c6e1181ae	-0.3388167452704022
52	0x3fd964ca37fb4aba	0.39677672831491473
53	0x3fdb4581454906b4	0.42611724630487946
54	0x3fc59df6f68aedc8	0.16888320005624124
55	0xbfb6532f0b4a4ae0	-0.08720678353919764
56	0xbfc118caa641642c	-0.13356907957020903
57	0xbfb300a2ed2dfab0	-0.07422846117513404
58	0xbfa0e54089fcb0f1	-0.032999054760098796
59	0xbfdffbbb92067a63	-0.499739544489705
60	0x3fd7fbc44ebaedf5	0.37474162758346036
61	0x3fdabed85d35bc72	0.4178982649090762
62	0x3fbdb8e09a22bc22	0.11610225451544001
63	0xbfd8a9cf0fd0295c	-0.38536430877925
64	0x3fb29c0de173fcad	0.07269369844651648
65	0xbfcecd89c2184468	-0.240647525570725
66	0xbfd348e3f2b4fa91	-0.30132387830591606
67	0x3fb149575419ab79	0.06752534678677859
68	0xbfbc6e7928e85055	-0.11106068848340674
69	0xbfd8388de04ce340	-0.37845179466562584
70	0xbfb668dc59995fe4	-0.08753754794577123
71	0xbfdc42f800d85f26	-0.44158744890727275
72	0x3fd8cca298e4baf1	0.38748993807796156
73	0xbfd5da0d210ecb73	-0.3414337942914962
74	0x3fd9d352b24ee170	0.4035231343546206
75	0xbfd40c852cd9bf8b	-0.3132641733163772
76	0xbfc12b80814fd5ee	-0.1341400748639638
77	0xbfcd5b33a31ecae1	-0.22934575524194314
78	0xbfdadc7981975dd4	-0.4197067037143516
79	0xbfd874b52b30a59e	-0.38212327211166464
80	0xbfc26fb01e19d556	-0.14403344602366513
81	0x3fdbec58d9022a5d	0.4363004798148376
82	0xbfb3935abc2bc8a0	-0.07646720022219933
83	0xbfd1e01fe6f85cdc	-0.27930448108368267
84	0xbfabff43840be730	-0.0546818827333041
85	0xbfb3d137f3083b98	-0.07741117175485923
86	0xbfc462428c5dcfa5	-0.159248655832582
87	0xbfddd4149f5d3266	-0.46606936991591963
88	0x3fb76a6e20945949	0.09146774573705331
89	0xbfc649233e15ec40	-0.17410698443913653
90	0x3fd6ea48a72da897	0.3580495483971701
91	0x3fcba6d88148bcb6	0.21602922737790714
92	0xbfd1ef42a2d46f4d	-0.280228289617061
93	0xbfd3be6f75277496	-0.30849825325805946
94	0xbfd9f63a6d3a48b2	-0.40565357844128436
95	0x3fd568b09dfa67d5	0.33451476504853633
96	0xbf86bb22d914c676	-0.011099121331969313
97	0xbfcf4515d04c4ebf	-0.24429581328205605
98	0xbfd5ef77d0ff1dcf	-0.3427409687978668
99	0xbfd94407202dd0a3	-0.39477708952405005
100	0x3fcfacc6ef47a1f5	0.24746023830017774
101	0xbfd232d9783ebb2e	-0.28435360663108866
102	0xbfc65c64a63202b4	-0.17469461550719745
103	0xbfd7e0ab1010c431	-0.37308765953918327
104	0xbfba95b1813fe10f	-0.10384663968568851
105	0x3fcafb9fc698dc0e	0.21080395886539843
106	0xbfdc7fdb1b3ee024	-0.4453037038870227
107	0xbfdb15d4d29faa7c	-0.42320747917862156
108	0xbfd6c17e9e61efd6	-0.3555599734024758
109	0xbf9075c0616e6119	-0.016074186274267797
110	0xbfd3876a3fe99801	-0.30514007798626613
111	0xbfd10464087f2224	-0.26589299039599923
112	0x3f666a6719134600	0.0027362836486666264
113	0xbfd7532e79ab373d	-0.36445199853629956
114	0x3fd407de9b02649d	0.31298031938201537
115	0xbfb94b2ef397be44	-0.09880345770920324
116	0xbfb2bf4b6439b4ba	-0.07323142239484329
117	0xbfdee1d057f6f129	-0.482532583144137
118	0x3fda382307c710f4	0.4096763206437253
119	0xbfdb28177de2b286	-0.42432200711736134
120	0xbfd17ecb1b39900f	-0.2733638540141791
121	0xbfe2ee5ef3998d45	-0.591598010807879
122	0x3fb655d05c8d8e64	0.08724691638558962
123	0xbfdfc62672e63aac	-0.49646912785184827
124	0x3fc1bf0ae5f919ec	0.13864265660431785
125	0x3fbae1f5edaccf8c	0.10501038601506546
126	0xbfe5a621c621759e	-0.6765297765484097
127	0xbfe0d6f2d85e8a3f	-0.5262388444865066
128	0xbfd0d0bcf52b36de	-0.2627403635241147
129	0xbfc453ac90968b13	-0.1588035303112397
130	0xbfbec0bd45dcedbd	-0.12012846904411041
131	0x3fd3ab0741108fed	0.30731374124502403
132	0x3fd5cee11fa8ebca	0.34075191585332887
133	0xbfbf698362e396a5	-0.12270375408442165
134	0xbfa93c3acf2a1d85	-0.04928764132369693
135	0x3fd1d4a31e30f7bd	0.27860334347121435
136	0xbfdb55c79f2cd6a4	-0.42711058182190187
137	0x3faee92db74ca7db	0.06037276136915156
138	0xbf79ba21d63dc80d	-0.006281025100053139
139	0x3fdb436e43bbc1a8	0.42599064459411773
140	0x3fd29d4ccc48cc8a	0.2908508295979081
141	0x3fc6ab780e723d30	0.17710781770117867
142	0x3fb95fa0f53cb818	0.09911542880283297
143	0xbfd714bf815dcd01	-0.36064136155546583
144	0xbfba49d246de5844	-0.1026889250773318
145	0xbfd44bc4005abbe9	-0.31712436709034236
146	0xbfdd64161dbc0695	-0.45923378852612845
147	0x3f864e431f6363e3	0.010891460795777469
148	0xbfd82a3ee13f16c9	-0.37757846829150005
149	0x3fb7d66c0c60ca13	0.09311557104300787
150	0xbfacdd253cce6d19	-0.056374705956125655
151	0xbfe551dd4bbc799a	-0.6662432173941852
152	0xbfd254f55e6e9629	-0.28643545362351347
153	0xbfbcbed5acf08221	-0.1122869059768239
154	0xbfbcbda466ba7128	-0.11226871021284934
155	0x3fd208f76e7b9d9b	0.2817972735342324
156	0x3fc8051d1c7ddf06	0.18765605822749637
157	0xbfd4ee6631878aaa	-0.3270507320104722
158	0xbfb6f8e33dd2c7a2	-0.0897352243362364
159	0xbfd5e5b2e3a21bc9	-0.34214470128830193
160	0x3fc6e6bcdcf7d950	0.17891655721150324
161	0xbfd170487381a7d8	-0.27247821121147586
162	0x3fdf2b569b804aed	0.48702016053827785
163	0xbfc19baec80e8570	-0.13756356018442828
164	0x3f9767564cca9fa7	0.022855137288075558
165	0xbfc80b04f23fa0ed	-0.1878362830023045
166	0x3fd912c5ea79858c	0.3917708196441587
167	0xbfdf7ceb0a452434	-0.49199939730584963
168	0x3fd77067f1390bc8	0.36623571926992016
169	0xbfbd4227873e0573	-0.11429068614781616
170	0xbfcfad837d2f72e5	-0.24748271572652594
171	0xbfd7674040670a0b	-0.3656769398623118
172	0xbfc58a8456cde917	-0.16828970182889044
173	0xbfe0161ce5753913	-0.502699325714078
174	0xbfc9872776fd5f6a	-0.19943707761808166
175	0xbfdae8986befc00d	-0.42044649639774506
176	0x3fc2544dbbf7e70a	0.14319774320738815
177	0x3fc58caff60f1c48	0.16835593714333386
178	0xbfddd186271d84fc	-0.4659133321748212
179	0x3fbcf0a309a6883f	0.11304682717903435
180	0xbfc42855c7e9f450	-0.15748092900676847
181	0xbfd6f3f2c4c67629	-0.35863942352611616
182	0xbfe255e01f7cf54e	-0.5729828467371278
183	0xbfc20d19f077dc5c	-0.1410248207245982
184	0xbfdcf2606990b5c1	-0.4522934943114159
185	0xbfaff35dbb90688e	-0.06240361132241033
186	0xbf67c742db690e4a	-0.0029026323129828545
187	0x3fd3058a568e6421	0.29721315815692334
188	0xbfc8f4f0567bbfee	-0.19497493956396234
189	0x3fdaa85120a6b6db	0.41652324856373263
190	0x3fb7ce46e0e9b5a6	0.09299128523863107
191	0xbfc654901103c424	-0.17445565062328783
192	0xbfdb3967d1f3bca7	-0.4253787565530253
193	0x3fd619fcc519a9d4	0.34533614395209367
194	0x3fd169f671fad7a7	0.2720924485287192
195	0x3fc18aeac64b8427	0.13705191309330297
196	0xbfd0869ab0d0fbf5	-0.2582155920717349
197	0x3fd5eaf8863ef9fd	0.3424664793964494
198	0xbfd1e0c79e02a1ca	-0.2793444674557831
199	0x3fddc040cb712068	0.4648591982590973
200	0x3fa6948d9ba4a970	0.044102120637336095
201	0xbfb55514a540ecad	-0.08332947763931271
202	0x3fd792a00c3c20ce	0.36832429117977206
203	0x3f85428ab4a82ad4	0.010380824697695891
204	0xbfdf6023d6abd4c7	-0.49024291957841765
205	0x3fab1f60f905bf7f	0.052973776243447006
206	0xbfdc2e1356ba3e1c	-0.44031222791179103
207	0xbfc41bb2b569328c	-0.1570952783389611
208	0x3fb118c6a66f74ca	0.0667843014084212
209	0xbfaf921e40b6765a	-0.06166166820478898
210	0x3fbac32cded154a8	0.10454063835034566
211	0xbfd8751f88b78f32	-0.38214863158485735
212	0xbfc7c24733defd23	-0.18561639817014805
213	0x3fce74db885acda0	0.2379412093920168
214	0xbfcd8f1b71b7cc88	-0.23092978527674668
215	0xbfb34e29fa03d411	-0.0754114375484536
216	0xbfd9dc22f49d6f85	-0.4040610684221451
217	0xbfd16f3c9b7b23f4	-0.2724143522614775
218	0xbfe09efb171715de	-0.519406838510516
219	0xbfc20a8c54034061	-0.14094690420324965
220	0xbfbc696a45c20571	-0.11098350718568441
221	0x3fb475d649646cba	0.07992305080226716
222	0xbfb63a245d373fc2	-0.0868246772363355
223	0x3fc86e7940189720	0.19087138776483759
224	0x3fd2decb9584d079	0.294848342909297
225	0xbfb86a3058ff8bce	-0.0953703133850887
226	0xbfd23262dc5e14e1	-0.2843253280664851
227	0xbfdb2c5b22905df5	-0.42458227515586994
228	0xbfb4720a018fcace	-0.07986509836318165
229	0x3fdba59b2c13c280	0.43198279671108963
230	0xbfc25a29b58f1ad8	-0.1433765541571208
231	0x3f986ccbc78b2137	0.023852523855368814
232	0xbfd508993bf46fa7	-0.32864981512988795
233	0xbfd68ce5ae3d03a3	-0.35234968200171063
234	0xbfcb2f190d2828ff	-0.21237481253076138
235	0xbfac7cb73d1ed366	-0.05563900586222452
236	0xbfc4d18b68a473b0	-0.1626447926472827
237	0xbfc4075ffe81c64e	-0.15647506644340797
238	0x3fc13f2c49e56e9b	0.13474038704122368
239	0x3fc1b66d734c1f18	0.1383797467208232
240	0xbfdca22b3e51b7f6	-0.4473980053506915
241	0x3f9c632f167d7d84	0.027722106692974716
242	0x3fd3c687d6f89b1a	0.30899234765313255
243	0x3fb2b2748bce243b	0.07303551114286304
244	0x3f685d6c033afec5	0.0029742345448936247
245	0x3fd4662a1aa4433c	0.3187356243297932
246	0xbfc2631d600f41cc	-0.1436497420350079
247	0xbfe0864fd11a8009	-0.5163954814961481
248	0xbfddfed1f8fa74c4	-0.4686779910496848
249	0x3fcd4b0ca3a9ebcc	0.2288528250827241
250	0xbfad7d006112bcbd	-0.057594310617213186
251	0xbfc1282db539a632	-0.13403865193258607
252	0x3fdeb19bb9e41b28	0.4795903506605321
253	0xbfd882b9986d5d14	-0.38297881970852754
254	0xbfd00d8b1ea134ae	-0.25082662573988557
255	0xbfd39e90ea260932	-0.30655310503074695

b_i_h f8 [20, 1]
0	0x3fadf207a399b13c	0.05848716613840785
1	0x3fb026207bf49b35	0.0630817701936451
2	0xbfe27dd077cdf83c	-0.5778581943448056
3	0x3fcf46b946631054	0.24434581696380298
4	0xbfd262ff09c58ccb	-0.2872922511507567
5	0xbfdc2ac583be976c	-0.4401105677192081
6	0x3fd43c9e08c09a98	0.3161997876617675
7	0xbf7454e60dbb0383	-0.004963778159152168
8	0xbfcf73d5f213d5f0	-0.24572252578916176
9	0xbfa41f1bd7d70b41	-0.03929984102025808
10	0x3fbb547e4e66c73b	0.10675801672075817
11	0xbfc86e9dce4cf994	-0.1908757455184512
12	0x3fd6c0c3acfa24f4	0.3555154027204275
13	0xbfcc53549ac292e0	-0.22129304463046306
14	0xbfc92ff87b53e813	-0.19677644750464704
15	0x3fd4c867ded2fe28	0.32473179588484635
16	0xbfdfddee493be5f4	-0.4979205813575327
17	0xbfe8e43648d246eb	-0.7778579160969604
18	0xbfb4cb392c08feb0	-0.08122594189716881
19	0xbfe0041241f43ac4	-0.5004969871677862

w_h_o f8 [10, 20]
0	0xbfde831cc01513b0	-0.4767524600795765
1	0x3fde02d58c6b9465	0.4689229842463816
2	0x400084ec11e10057	2.0649033924856144
3	0x3fbf9ba5275703b6	0.12346870623060976
4	0x3ffa208e83e54490	1.6329484131022447
5	0xbfc9a531f2f83455	-0.20035385478732573
6	0x3fddfecbad48eac5	0.4686764900431338
7	0xbfe30f7ba8ba4528	-0.5956400199376377
8	0x3fb2aee954e68a79	0.07298143694655747
9	0x3ffc8556f92d90e2	1.782553647376567
10	0xbfbc1cfd2148c5b2	-0.10981733381847539
11	0x3fe396315b3ab4b7	0.6120840818236023
12	0x3ff5f8659f14585f	1.373143788723176
13	0x3fdedc10636f577f	0.48218164167825955
14	0xbfe048b2c190f32f	-0.5088743000593235
15	0x3fee98f074fa8da0	0.9561693463078207
16	0x3fee7d53b0373730	0.9527986947739233
17	0x3ff3553a0fd7f054	1.2083073252570289
18	0x3fe6340f7515cf50	0.6938550268955428
19	0xbff1ed4c15fe22b1	-1.1204338893023016
20	0x3ff6dc28e1481a34	1.4287499237122008
21	0xbfdf3c21e5c2d758	-0.48804519116980805
22	0xbfe9e0d582e36077	-0.8086955601129507
23	0x3fcd92c803131f51	0.23104190969592733
24	0xbfc3f677e398ab04	-0.1559591161070203
25	0xbfcd108181da6880	-0.22706621971594032
26	0x3fd825f14752d9f5	0.3773158260841279
27	0x3ff9d2955ea1625c	1.613911981248882
28	0x3fcf10e0aaf447e2	0.2427025637376224
29	0xbfe57eed2bb52613	-0.671743951193266
30	0x3ff6f9fa9db669e0	1.4360300217291453
31	0x3fe3ac0ac5e2e2bb	0.6147512307134869
32	0x3fd8cb4eb569cbc5	0.38740890232218944
33	0x3fe3b14295b8a78b	0.6153881954426067
34	0x3ffaebd2140daf2e	1.682573393186384
35	0x3fbe3037fba06f27	0.11792325871686825
36	0xbfdabe8e94928089	-0.41788067349444497
37	0xbfc32a4c9dd1de4d	-0.1497283716778263
38	0xbff940102072f1d7	-1.5781403796710174
39	0x3fefbca6f9c3c5dd	0.9917788389413392
40	0xbfd282cd38100324	-0.2892334983335323
41	0xbfe989e7428f5c1c	-0.7980839061737046
42	0x3ffbe0a3d762ae07	1.7423437512869684
43	0x3fe4629e46d5d301	0.6370383628369326
44	0xbfea58556f9e6885	-0.8232829265646308
45	0xbfcb59c3fb17be06	-0.21367692718875747
46	0x3fd9de339afb6e5f	0.4041871083734118
47	0xbfb77a63327bbac5	-0.09171123487952133
48	0x3fc55c8aaf6e754e	0.16688664976110562
49	0x3ff793edd054d45a	1.473615468782802
50	0x3fedefac664ec5a1	0.9355070112416578
51	0x3fc4ef3e7737fb20	0.1635511476633491
52	0xbfd8e9a89df3e567	-0.38926139283247213
53	0x3fc417db003bf034	0.15697801124031374
54	0x40007881eb6b0732	2.058841551975001
55	0x3fb402167906b993	0.0781568570589342
56	0x3fb0ef151151c924	0.06614810631598239
57	0x3ff8320301f074ce	1.5122098994973387
58	0x3ff023b99c960f4d	1.0087219349524787
59	0x3ff5e8fefbcbac1f	1.3693837962880548
60	0xbfe866a24803ea28	-0.7625285536335626
61	0xbfd5870d5dadc509	-0.33636793278044813
62	0xbf8b8b71219d3499	-0.013449558103866987
63	0x3fd4fb47fe6e4e22	0.32783698889508817
64	0x3ff420a42202e822	1.2579690292900598
65	0x3fd6aa865c3a7a91	0.354158010546521
66	0x3fedf57867d1d958	0.9362146404007872
67	0x3feca9e3d12a999f	0.8957385144502047
68	0x3fc112293e1e2f0d	0.1333667329130254
69	0xbff1c971d5d13df2	-1.111680827354459
70	0x3fbdf99c65eec1a7	0.1170900105341902
71	0x3fc928eb5f960cc0	0.19656126181880573
72	0xbfed21c9227a1a2a	-0.9103742287996444
73	0xbfcfbe448ebacf38	-0.24799401253914666
74	0x4002a057fd7ac7d8	2.3282928279013326
75	0x3ffe47d6e7caaafc	1.892538934169976
76	0x3ff1032c8368739e	1.0632748730779222
77	0x3fe3dbe6605350ab	0.6205932504040182
78	0x3ff21e0ac42c8bb2	1.1323344862982876
79	0xbfdec9c6e0a3b4cc	-0.48106548249672865
80	0x3ffc68e13b188bb1	1.7756054218705055
81	0x3ff9747acd10d0b2	1.5909374246958063
82	0xbfd662fc5e54169e	-0.34979161464466724
83	0x3ff14f8555f3ec29	1.081914268258297
84	0xbfe4f7503100b33c	-0.6551896054348627
85	0xbfe1a815aae39996	-0.5517681443860052
86	0x3ff004ce72d3bb39	1.0011734471733702
87	0xbfd8c8063d1b5a98	-0.3872085186716645
88	0xbfdf64a66a101292	-0.49051819188779533
89	0x3fedf45e7a176bec	0.9360802063559936
90	0xbfe30a4aa88e514c	-0.5950063030345887
91	0x3fe1ac5bcd31468f	0.5522898681321794
92	0xbff092f78b48c3f3	-1.0358806076803801
93	0xbfc452045fbe646e	-0.15875296282755208
94	0xbfd5bde0433ca547	-0.3397141129122087
95	0xbff33a96614fd688	-1.2018035699124159
96	0x400018aa517c3299	2.0120436063792337
97	0xbfe45eb12172680f	-0.6365590718517086
98	0x3fe845048596ed0e	0.7584250077410688
99	0x3fee880348595f5a	0.9541031277721956
100	0xbff01ce64d9a3e98	-1.0070555716846794
101	0xbfe1ea4c7bae6ea8	-0.5598509231235385
102	0xbfe4d17742e8f61f	-0.6505695635639234
103	0x3fe73212ee93060d	0.7248625430731309
104	0x3fe5156b4f1614fc	0.658864645448062
105	0x3febf47e58897391	0.8735954026447975
106	0x3ff024c5a60d98b6	1.008977554936377
107	0x3ff262f14de3a35e	1.149155906920178
108	0x3fdbde66a2ff6756	0.43544927518597853
109	0xbfeb1f22a20e73d5	-0.8475506940045486
110	0xbfe6010b2dd5e331	-0.6876274008965081
111	0x3ff3f88ab196c85e	1.2481791436262237
112	0x3ff5c3c0424274f2	1.3602907741799837
113	0xbfe21052d83bdabb	-0.5644926284138231
114	0xbfed8a38e177b638	-0.9231228259720359
115	0x3fc3d71ba1804ddf	0.15500207315254408
116	0x3fe604db6f8f6a5f	0.6880929163847432
117	0xbfd470a1c874dc56	-0.319374509580887
118	0x3fed332d258dbd83	0.9124971135587859
119	0xbfe9e66412a5456e	-0.8093738903209393
120	0x3fc9a2fd7dd42f38	0.20028656620012852
121	0x3fd89bab7a199f8e	0.38450133251034735
122	0x3ffdb5615947b558	1.8567822921280221
123	0x3fdc71ed9677c9af	0.44445361799366884
124	0xbf9b3a3219be80b9	-0.026589186497972792
125	0x3ffdae2784568809	1.8550181550458567
126	0x3fdf735aca593447	0.49141568909255223
127	0x3fee57a5420ade93	0.9481989183322689
128	0x3fd88f2d1dc82e51	0.3837387839164182
129	0x3ff9158a538994b5	1.5677588713818242
130	0xbfa8047fb99fd8ea	-0.04690932408259292
131	0x3ff4122c2a659564	1.2544366508603497
132	0xbfc8cd356ece2186	-0.1937624732056628
133	0x3fe38f5e70555013	0.61125108661736
134	0xbfebb37aa29840d6	-0.8656590629271033
135	0xbfe9c54395a1fa2d	-0.8053300783647664
136	0xbfeb2f86b6486e1b	-0.8495515403951147
137	0xbff679891d02e707	-1.4046717770820025
138	0x3fda480f59f21dc3	0.4106481912972095
139	0x3feacbe7092f07f0	0.8373904399270469
140	0x3fec566352526800	0.8855454070901487
141	0x3ffcae703fe3355e	1.7925875182730446
142	0xbfdf0cfeb3345f13	-0.48516814709135864
143	0x3fdd2b56446c2904	0.4557700794399724
144	0x3fe32fea12337fc6	0.5995989184848376
145	0xbfda66d6f8095be3	-0.41252683851547384
146	0x3ff2fafa4a3b2a41	1.1862738513615485
147	0xbfd07d37454fbf50	-0.2576425721044773
148	0xbfde616128db60dc	-0.47469357480941965
149	0xbfe0dd2b800b7b34	-0.526998281562419
150	0x3ff6080f18f90a67	1.3769675231457315
151	0xbfff8f47df4094aa	-1.9724806519309745
152	0x3ff0f32e537c998f	1.0593703519058157
153	0x3fe60d2f79c9c86d	0.6891095522571625
154	0xbfd776dfc6b997a4	-0.36663050085769044
155	0x3ff28308ab4d3b49	1.1569906894180397
156	0xbfdf53b333d5e6e4	-0.4894836431700311
157	0x3fc1e457c03e6ee1	0.13978096854122327
158	0x3fe3808797911e9e	0.609439655331659
159	0xbfe37da5faf69826	-0.6090879346491007
160	0x3fe73fa43216380d	0.7265187242753669
161	0xbfd3e17b5d1656fb	-0.31063732233575053
162	0xbfca314e7e15df17	-0.2046297183658161
163	0x3fde24fbdee4296e	0.471007316272014
164	0x3fefe5b1c3eabed4	0.9967888666633038
165	0x3fd796023c2863a2	0.3685308063009477
166	0x3fe3047ad0a17923	0.5942968439883639
167	0x3fee415f4ad1105b	0.9454800091994103
168	0x3fda86c6f5f05c73	0.4144761468646216
169	0xbff386d323873195	-1.2204162013832491
170	0xbf76d05044e7762b	-0.005569757033723681
171	0x3ff4fa35a3aceaca	1.3110863107273638
172	0x3fd8100b0389c3a0	0.37597918839952094
173	0x3ff1b385a6bee3ba	1.1063286317350802
174	0xbfe6e4ae019d901d	-0.7154150039245938
175	0xbfebbf5db04434c2	-0.8671101038650237
176	0x3ff991554e89cb2c	1.5979817455196992
177	0x3ffd6af99a9d89ed	1.838616947141982
178	0x3ff5aeb8c9f99412	1.3551566972394125
179	0x3ffe85f8280f3f3e	1.9077073635889543
180	0x3ff0d18897748881	1.0511556545466478
181	0x3ff5ec7c1feb33da	1.3702355620218811
182	0xbfe888f263a7cee6	-0.7667171427151203
183	0x3fef7dfe5e7784d3	0.9841300816589417
184	0xbfe5a7693a9a5135	-0.6766859192453355
185	0x3fc4d4a815bbcff3	0.16273976384366015
186	0x3fda7a8c88ef6029	0.4137297951942878
187	0xbfd2a8591440cc3c	-0.2915251443657245
188	0x3fdbff4660a51a39	0.4374557441518934
189	0x3fc374054c2d5898	0.1519781705816896
190	0xbfd6ecfe015443f8	-0.3582148564319705
191	0x3ff9c096e1d99460	1.6095188925039778
192	0x3ffd91a3a8b08260	1.8480564679558924
193	0xbfdc71eeeabe238e	-0.44445393489927987
194	0xbfd28ff6e7d4b221	-0.2900368942235066
195	0x3ff9f1ea7bdae91d	1.6215615118113142
196	0xbfd60e1061fd65dd	-0.34460839814491157
197	0xbfd26459b38338fc	-0.2873749020626659
198	0x3ff3f55e17c65bc6	1.247404187078915
199	0x3ff807e1655fb550	1.50192393874325

b_h_o f8 [10, 1]
0	0xc0222606e2f4ff50	-9.074271290213488
1	0xc01925ca86387203	-6.2869053813888085
2	0xc0213e2f293cdda0	-8.62145356052389
3	0xc01f616349b677ba	-7.845105315935081
4	0xc01f7548ecdce92f	-7.864536000235872
5	0xc01872417e4ecbcc	-6.111577962455112
6	0xc01e3514f63389df	-7.551837775130905
7	0xc01afd47f5e220c1	-6.747344819952731
8	0xc023ebe568d82220	-9.960734630950412
9	0xc0229e773d1da47d	-9.30950346934173
